cloth_pinn1.pth (torch, 39045 bytes, 8 tensors)

net.0.weight f4 [64, 4]
0	0x3e9a6432	0.30154568
1	0xbe1e25a1	-0.15444042
2	0x3eca5fa0	0.3952608
3	0xbe3ac0e5	-0.18237646
4	0xbeca6be2	-0.39535433
5	0x3e8e9717	0.27849647
6	0x3e11dd48	0.14244568
7	0xbe60e9c6	-0.21964177
8	0x3daa9371	0.083289035
9	0x3dbf79fe	0.0934944
10	0xbdcf4780	-0.101210594
11	0x3ed53bb7	0.4164712
12	0xbddb0c94	-0.106957585
13	0xbda8adac	-0.0823625
14	0x3ebfc3ee	0.3745417
15	0xbaf27c29	-0.0018500137
16	0x3ee994b3	0.4562126
17	0x3ec545a5	0.38529697
18	0xbe64f67c	-0.22359651
19	0x3e496377	0.19666849
20	0xbeb648bf	-0.35602376
21	0xbe945e14	-0.28978026
22	0xbe428834	-0.1899727
23	0xbeca5f29	-0.39525726
24	0xbec6a610	-0.3879857
25	0xbf0cd98b	-0.55019444
26	0x3eef417c	0.46729648
27	0x3a3edb1a	0.00072805735
28	0xbd67d9d8	-0.056604236
29	0xbe954bce	-0.29159397
30	0xbe539374	-0.20661718
31	0x3d76e49e	0.06027662
32	0x3d89e339	0.067327924
33	0xbe4e5d0e	-0.20152685
34	0xbd958a30	-0.07301748
35	0xbe7a4a0a	-0.24442306
36	0xbee431e7	-0.44569322
37	0xbec55b23	-0.38546094
38	0xbee30f7e	-0.44347757
39	0x3d062b57	0.032756176
40	0x3e87937d	0.26479712
41	0x3e86788b	0.26263842
42	0xbde354e8	-0.11100179
43	0xbdbb2dd2	-0.09139599
44	0x3e062985	0.13101776
45	0x3e99867b	0.29985413
46	0xbdb961f0	-0.09051883
47	0xbeb90a5b	-0.36140713
48	0x3e99820d	0.29982033
49	0xbed9b498	-0.42520595
50	0xbe32762c	-0.17427891
51	0xbe94f1e3	-0.29090795
52	0xbe74ead7	-0.2391771
53	0xbea362a0	-0.31911182
54	0x3e45dd60	0.19322729
55	0x3e9acdbd	0.3023509
56	0xbea1d1ab	-0.31605276
57	0x3ee3acba	0.44467717
58	0x3eff23ca	0.49831992
59	0x3ea211fb	0.31654343
60	0x3d669e0a	0.05630306
61	0xbdd2a59a	-0.10285492
62	0xbd586f30	-0.05284041
63	0x3eb76296	0.35817403
64	0x3ec75b58	0.38936877
65	0xbedc1782	-0.42986685
66	0xbed737a8	-0.4203465
67	0xbe35ad57	-0.17741905
68	0xbe916151	-0.2839456
69	0x3e9e49c0	0.30915642
70	0x3e8de234	0.27711642
71	0xbeef5834	-0.4674698
72	0xbebff9ad	-0.37495175
73	0x3d7f9ac9	0.062403474
74	0x3e884e7e	0.26622385
75	0xbebf4492	-0.37357002
76	0xbe3af628	-0.18257964
77	0x3cadd030	0.021217436
78	0xbeec2208	-0.46119714
79	0xbe7601a2	-0.2402406
80	0x3d8abd53	0.06774392
81	0x3e331959	0.17490138
82	0x3eca408e	0.39502376
83	0x3eb8fe2a	0.36131412
84	0x3e1c1b9b	0.15244906
85	0x3ddbc403	0.10730746
86	0x3eb96fa4	0.36217988
87	0xbea1a114	-0.31568205
88	0xbe049857	-0.12948738
89	0x3eeba1d7	0.46021912
90	0x3ee8e428	0.4548657
91	0xbeae1102	-0.3399735
92	0x3e859dea	0.2609704
93	0xbe8d046d	-0.2754244
94	0xbe1bb5f8	-0.15206134
95	0x3e820cb5	0.2540032
96	0xbd372359	-0.044711445
97	0x3ed0ff23	0.40819654
98	0xbe767444	-0.2406779
99	0x3ea85646	0.3287832
100	0x3dcb2460	0.09919047
101	0xbee2058f	-0.44144866
102	0xbe173fec	-0.14770478
103	0x3d76fb76	0.060298406
104	0x3e2dae96	0.1696113
105	0x3d9192c9	0.07108075
106	0x3d965850	0.07341063
107	0xbe090775	-0.13381751
108	0xbed03e0e	-0.40672344
109	0xbe2ee1ca	-0.17078319
110	0x3ef3494e	0.47516865
111	0xbec1a8be	-0.37824053
112	0x3ec7ab91	0.38998082
113	0x3ee34058	0.44385028
114	0xbe89b112	-0.26892906
115	0xbb8ebf1e	-0.004356279
116	0xbeacc8fb	-0.33747086
117	0xbe21d940	-0.1580553
118	0x3d171a60	0.036890388
119	0xbe0891f2	-0.13336924
120	0xbe83472a	-0.2564023
121	0xbe880e17	-0.2657325
122	0xbe18ad98	-0.14909971
123	0x3ea845b3	0.32865676
124	0x3e7fdd7b	0.24986832
125	0x3e436c33	0.19084243
126	0x3c368540	0.011140168
127	0x3e43a5b5	0.19106181
128	0xbe9d03ba	-0.30666906
129	0xbef2d8e4	-0.474311
130	0x3e8c3f06	0.27391833
131	0x3e99124d	0.29896775
132	0x3e8a6e51	0.2703729
133	0xbe2f22f8	-0.17103183
134	0xbead983a	-0.33905202
135	0xbea96163	-0.33082113
136	0xbd8a8612	-0.06763853
137	0x3e7b2dfe	0.24529263
138	0xbe46cac0	-0.1941328
139	0xbda23933	-0.07921066
140	0x3edefa1f	0.43550202
141	0x3e671da6	0.22569904
142	0xbe6ea574	-0.23305303
143	0x3e54a26f	0.20765088
144	0xbe1ad5c7	-0.15120612
145	0xbdc59ca5	-0.09649018
146	0x3ed1252c	0.40848672
147	0xbec6125f	-0.3868589
148	0xbe255e93	-0.16149358
149	0xbab34652	-0.0013677573
150	0xbe09dc40	-0.13462925
151	0x3eb74bd9	0.35800055
152	0xbec3069a	-0.38090974
153	0x3edfe69a	0.43730623
154	0xbef5f9d0	-0.48042154
155	0x3ea013de	0.31265157
156	0x3ee5cbb6	0.44881982
157	0xbe30638d	-0.17225476
158	0x3e6bef24	0.23040444
159	0xbdec4f5f	-0.11538576
160	0xbe86b81a	-0.26312333
161	0x3e71cbeb	0.23612945
162	0xbe7ccfb0	-0.24688601
163	0x3e287d16	0.16453966
164	0xbe5877e7	-0.21139489
165	0x3e9db49b	0.30801854
166	0x3d444830	0.047920406
167	0x3ed50268	0.41603398
168	0x3e93ee0c	0.28892553
169	0x3eadbd07	0.3393328
170	0x3e59077c	0.21194261
171	0x3e1ff5bb	0.15621082
172	0x3daade79	0.083432145
173	0x3e49ec88	0.19719136
174	0xbe621208	-0.22077191
175	0x3e832508	0.2561419
176	0xbec971e0	-0.39344692
177	0xbe65cfa6	-0.22442493
178	0x3e317168	0.17328417
179	0xbcb474fc	-0.022028439
180	0x3d205b2e	0.039149456
181	0x3c0eeb5a	0.008723104
182	0xbe712610	-0.23549676
183	0xbe4a7227	-0.19770108
184	0xbed82399	-0.4221466
185	0x3e54cd05	0.20781334
186	0xbeddb204	-0.43299878
187	0x3de2228a	0.11041744
188	0xbec9918b	-0.39368853
189	0xbee6a528	-0.4504788
190	0xbe7613dc	-0.24031013
191	0xbcc04541	-0.023470523
192	0xbe92f27e	-0.28700632
193	0xbef03ad7	-0.4691989
194	0xbe932b98	-0.28744197
195	0xbd1a3a8e	-0.0376535
196	0x3eddf972	0.43354374
197	0xbef8f268	-0.4862244
198	0xbe8e2ee2	-0.27770144
199	0xbca3b02e	-0.01998147
200	0x3edf464f	0.4360833
201	0x3ef106d0	0.4707551
202	0x3ec2ad74	0.3802296
203	0xbe6695ef	-0.22518133
204	0x3ec8640b	0.39138827
205	0xbef8e804	-0.48614514
206	0x3e52d300	0.20588303
207	0x3eda2960	0.42609692
208	0x3e87f5c1	0.26554683
209	0x3d34eee9	0.044173155
210	0x3eb3aa54	0.35090888
211	0x3e5eaa2e	0.21744606
212	0x3eacb456	0.33731335
213	0x3eee1401	0.46499637
214	0x3e9c7726	0.30559653
215	0xbede1dfc	-0.4338225
216	0xbdf6aa9e	-0.120442614
217	0x3e663c1e	0.2248387
218	0xbe336c1c	-0.17521709
219	0xbece08d5	-0.40241113
220	0x3cd1113f	0.025520919
221	0x3e4ee111	0.20203044
222	0x3dff59b8	0.12468284
223	0x3e7da0c5	0.2476836
224	0xbcc92496	-0.024553578
225	0xbe75d884	-0.24008375
226	0xbdba5b18	-0.09099406
227	0xbee48303	-0.44631204
228	0xbe11ce9a	-0.14238968
229	0x3ea1cacd	0.31600037
230	0xbefb1560	-0.49039745
231	0xbed16646	-0.4089834
232	0xbe275e3b	-0.1634454
233	0xbe9e42f4	-0.30910456
234	0xbd4a5df0	-0.049405992
235	0xbed95724	-0.42449296
236	0xbef29bf2	-0.47384602
237	0xbe9891a7	-0.29798624
238	0xbee25aa8	-0.4420979
239	0x3e303f27	0.1721159
240	0x3e83f80f	0.2577519
241	0x3e82b42a	0.2552808
242	0xbea4b87e	-0.32172006
243	0x3eb175b7	0.34660122
244	0xbee88569	-0.45414284
245	0xbe76a952	-0.24088028
246	0xbcbf8ec0	-0.023383498
247	0xbedcce55	-0.4312617
248	0x3e74abbf	0.23893641
249	0xbe847ce8	-0.25876546
250	0xbe34cdf4	-0.1765669
251	0xbe604e2a	-0.21904817
252	0xbdded444	-0.1088033
253	0x3ee52a48	0.4475882
254	0xbedf7dbc	-0.43650615
255	0xbee51be1	-0.44747832

net.0.bias f4 [64]
0	0xbe9772a7	-0.2957966
1	0xbdf7bca5	-0.12096528
2	0xbe621932	-0.22079924
3	0x3e09e51a	0.13466302
4	0x3ea9125a	0.33021814
5	0xbeb6e5af	-0.3572211
6	0xbee1cf0a	-0.4410327
7	0x3ee34775	0.44390455
8	0x3e13381b	0.14376871
9	0xbee9c300	-0.45656586
10	0x3ec4632a	0.38356906
11	0x3eaaffe5	0.33398357
12	0xbdecfa50	-0.11571181
13	0x3e68e073	0.2274187
14	0xbbd53b1b	-0.00650729
15	0xbd777bdf	-0.060420867
16	0xbe94f678	-0.2909429
17	0xbeed3faf	-0.4633765
18	0x3ecc9886	0.39960116
19	0x3e23a2dd	0.15980096
20	0xbeba05de	-0.363326
21	0xbea1def5	-0.31615415
22	0xbedb93c1	-0.42886165
23	0x3ee117f1	0.43963578
24	0xbed2ed7b	-0.41196808
25	0x3e02b727	0.1276518
26	0x3e26855a	0.16261807
27	0x3e373354	0.17890674
28	0xbd1a05cc	-0.037603185
29	0x3ed59d81	0.41721728
30	0xbeb62917	-0.35578224
31	0x3f032222	0.5122396
32	0x3ec10d0e	0.37705272
33	0xbd9c0e48	-0.076199114
34	0xbe8a12cc	-0.26967466
35	0x3ed3d683	0.41374597
36	0xbebaa735	-0.36455694
37	0xbe841dd6	-0.25804013
38	0x3e6b80f7	0.22998415
39	0xbe3c8136	-0.18408665
40	0x3e16094a	0.14651981
41	0xbe5453ee	-0.20735142
42	0x3dc1d90a	0.09465225
43	0x3ea93cb2	0.3305412
44	0x3de06726	0.10957174
45	0x3eef9981	0.46796802
46	0xbe211faa	-0.15734735
47	0xbe1f8612	-0.15578488
48	0x3d41193d	0.04714321
49	0x3c81fdf0	0.015868157
50	0x3e7458b5	0.23861964
51	0xbe7759e9	-0.24155392
52	0x3e0328a7	0.12808476
53	0x3f028414	0.50982785
54	0xbe9aa833	-0.3020645
55	0xbec3fcc6	-0.38278788
56	0xbec7144c	-0.38882673
57	0xbe183b93	-0.14866476
58	0x3d01bc86	0.03167393
59	0x3d62adb9	0.055341456
60	0x3eb73b1a	0.35787278
61	0x3ca87d80	0.020567656
62	0x3e5372d3	0.2064927
63	0x3c9cd41b	0.019144109

net.1.weight f4 [64, 64]
0	0xbcc5dacb	-0.02415218
1	0xbd691405	-0.056903858
2	0x3df869b3	0.121295355
3	0x3c82e867	0.015979959
4	0xbdb05353	-0.08609643
5	0x3ce3a70e	0.027789619
6	0xbd1ee4f3	-0.03879256
7	0xbd0bf613	-0.03417022
8	0x3b54cd95	0.003247117
9	0xbdeeaf34	-0.11654511
10	0x3de3b7f3	0.1111907
11	0xbcdee95c	-0.027210884
12	0xbd75c76c	-0.060004637
13	0xbd6eef96	-0.058333956
14	0x3a9bf597	0.0011898753
15	0x3df034dc	0.11728832
16	0xbdefde0c	-0.11712274
17	0xbdda8ffb	-0.10671993
18	0xbc6b2e5f	-0.014354317
19	0xbdda7f55	-0.10668818
20	0x3becb808	0.0072240867
21	0xbdb2e71b	-0.08735486
22	0x3dd3b47f	0.10337161
23	0xbd278b03	-0.040904056
24	0x3cd40363	0.025880521
25	0xbc7ac4d8	-0.01530572
26	0x3c729143	0.014805141
27	0x3dc8d9ea	0.09807189
28	0xbd025e1d	-0.031828035
29	0x3dce54ad	0.100747444
30	0x3cde55fd	0.027140612
31	0xbc908277	-0.017640335
32	0xbd621a9c	-0.055201158
33	0x3b648aba	0.0034872727
34	0xbd907866	-0.07054214
35	0x3df31c65	0.1187065
36	0x3d94b3f8	0.07260889
37	0xbdad3799	-0.0845787
38	0xbdc4de7a	-0.096127465
39	0x3d5f9c5f	0.054592486
40	0xbb262118	-0.0025349315
41	0xbd3b8097	-0.04577693
42	0xbda3455a	-0.07972212
43	0x3b8e98e0	0.00435172
44	0xbd99c1a7	-0.075076394
45	0xbcf2f8a9	-0.029659586
46	0xbd5d253b	-0.053990584
47	0xbcdf8e18	-0.027289435
48	0x3d9bf636	0.076153204
49	0x3b4cce9c	0.0031251078
50	0x3db4e41e	0.088325724
51	0xbc1efc2c	-0.009703677
52	0x3da3d8a1	0.08000303
53	0xbd59d98a	-0.053185977
54	0xbcb6e56a	-0.02232619
55	0x3d82b47b	0.0638208
56	0xbdd3678d	-0.10322485
57	0x3d36c8f3	0.044625234
58	0xbd33d947	-0.043908384
59	0x3d01d2d4	0.031695202
60	0x3d3a0e69	0.0454239
61	0xbdb40a0f	-0.08790981
62	0xbd82eeeb	-0.06393226
63	0xbcc15e14	-0.02360443
64	0xbdc2e6b3	-0.09516659
65	0xbd5dbb02	-0.054133423
66	0x3da71e9c	0.08160135
67	0x3c38713b	0.011257465
68	0x3d8d8c8f	0.06911575
69	0x3d28f048	0.041244775
70	0x3d369a31	0.044580642
71	0x3dac002d	0.08398471
72	0x3d94cd3f	0.0726571
73	0x3dfabef4	0.12243453
74	0xbcdd9084	-0.02704645
75	0x3dd1b320	0.102392435
76	0x3d099516	0.033589445
77	0x3d87bfaa	0.06628354
78	0xbd54eefa	-0.05198572
79	0x3dc795e8	0.09745389
80	0x3bb5bebe	0.00554642
81	0xbb1cc09d	-0.0023918517
82	0xbaa23bea	-0.0012377475
83	0x3ce9f7a5	0.028560469
84	0xbdbe7e01	-0.09301377
85	0xbd2a11ca	-0.04152087
86	0x3d024695	0.031805594
87	0x3c506b7a	0.012720937
88	0x3d98788b	0.07444867
89	0x3d740976	0.059579335
90	0xbda3f68f	-0.08006012
91	0x3db4fd40	0.08837366
92	0x3dbdc8cb	0.09266814
93	0x3d62621f	0.055269357
94	0xbd0e681d	-0.03476726
95	0xbc18102f	-0.009281202
96	0xbd0aaabc	-0.03385423
97	0x3bf09a2c	0.0073425975
98	0xbd73244d	-0.05936079
99	0xbda711e9	-0.08157713
100	0x3d7a343b	0.061084967
101	0xbd8dbfb8	-0.06921333
102	0xbdac0bfb	-0.084007226
103	0xbdd3dfeb	-0.10345443
104	0xbcd5b8f3	-0.026089167
105	0x3de043b9	0.10950417
106	0x3dfedd07	0.12444501
107	0xbdc1f315	-0.09470192
108	0x3d1b7cfa	0.037960984
109	0xbdfd8d3d	-0.12380455
110	0xbc667f1e	-0.014068393
111	0x3d8feaa0	0.07027173
112	0x3de1ac18	0.110191524
113	0xbdd94ae8	-0.1060999
114	0x3d0da9f1	0.034585897
115	0xbda7bea7	-0.08190661
116	0xbdd697c5	-0.104781665
117	0xbddb435f	-0.107062094
118	0x3d8144dd	0.06311963
119	0x3c9e5b0a	0.01933052
120	0xbd9f2981	-0.07771588
121	0xbde27db0	-0.11059129
122	0xbd1b24f6	-0.037877046
123	0xbdba39d6	-0.090930626
124	0x3db913f4	0.09037009
125	0xbce35d5b	-0.027754476
126	0xbdda9655	-0.10673205
127	0xbce6a91d	-0.028156811
128	0xbd0b471c	-0.034003362
129	0xbda7f673	-0.08201303
130	0x3df56cba	0.119836286
131	0xba67fb66	-0.0008849412
132	0xbdbecaec	-0.09316048
133	0xbd89bfcb	-0.06726035
134	0xbc51e5e7	-0.012811161
135	0x3e00bbd7	0.12571655
136	0xbd98864e	-0.074474916
137	0x3dc221c0	0.094790936
138	0x3bafe894	0.0053683016
139	0xbda1f5c8	-0.07908207
140	0x3bbd2e4f	0.0057733427
141	0xbd80f2b9	-0.06296296
142	0xbd744c79	-0.059643243
143	0xbc85a73e	-0.016315099
144	0x3d55b2d1	0.052172486
145	0x3dea5e29	0.11443741
146	0xbd8f550f	-0.069986455
147	0x3cb1afc0	0.02169025
148	0xbd964441	-0.07337237
149	0xbca5f4e2	-0.02025837
150	0x3d1cf5b5	0.038320262
151	0xbcec016d	-0.028809274
152	0xbc4ffa61	-0.012693972
153	0x3cd075e0	0.025446832
154	0xbdae0cf0	-0.084985614
155	0xbd9dae91	-0.076993115
156	0xbdb13428	-0.08652526
157	0x3db837a6	0.08994989
158	0x3b785231	0.0037890787
159	0xbdd577b7	-0.104232244
160	0xbc3c80f2	-0.011505352
161	0xbcf72c29	-0.030172424
162	0x3d9852d6	0.07437675
163	0x3cc7e521	0.02440125
164	0xbd39e39b	-0.045383077
165	0xbdf93587	-0.12168413
166	0x3dd47e20	0.10375619
167	0xbcc48e3e	-0.023993608
168	0x3dba465e	0.09095453
169	0x3afe79c9	0.0019414957
170	0x3dcc5aff	0.09978294
171	0xbd9f62f6	-0.07782547
172	0x3cdac6ed	0.026706183
173	0x3df0fb7b	0.11766716
174	0xbc339d6b	-0.010962824
175	0x3dd8df96	0.10589521
176	0xbd887234	-0.066624075
177	0x3db2c4bc	0.0872893
178	0xbc949d72	-0.018141482
179	0xbdd5008c	-0.10400495
180	0x3dea6427	0.11444884
181	0x3d5b7322	0.053576596
182	0x3d80635a	0.0626895
183	0x3dd0fe00	0.10204697
184	0x3ba551d9	0.0050451574
185	0xbdadaac8	-0.084798396
186	0x3d3bc593	0.04584272
187	0xbdcbfba7	-0.09960108
188	0x3df6b1f6	0.12045662
189	0xbdcf4aaf	-0.10121667
190	0xbdd288a3	-0.10279968
191	0x3de3da49	0.11125619
192	0x3c8f6be6	0.017507505
193	0x3c1175fe	0.008878229
194	0x3d8afa7a	0.06786056
195	0xbdfb707c	-0.12277314
196	0x3dedfdf0	0.116207
197	0x3df8dc45	0.12151388
198	0xbda4f2fe	-0.080541596
199	0x3dc058d1	0.093919404
200	0xbcfec9f5	-0.03110216
201	0x397c4170	0.0002405697
202	0xbccdf73a	-0.0251423
203	0x3dfb75da	0.12278338
204	0xbde29d19	-0.1106512
205	0x3dc57997	0.09642332
206	0x3dc0ed87	0.09420305
207	0xbda46316	-0.08026712
208	0x3dcaae14	0.09896484
209	0x3cd2f8d9	0.025753425
210	0xbd1f6066	-0.038910292
211	0xbd357761	-0.0443033
212	0x3dd57677	0.10422986
213	0x3dc88ba2	0.09792258
214	0xbd97bc45	-0.074089564
215	0xbdd228d0	-0.102616906
216	0x3ca4160e	0.020030048
217	0x3dc80887	0.097672515
218	0xbcc2fa22	-0.023800913
219	0xb96ce3d4	-0.00022591586
220	0x3d279df3	0.040922116
221	0xbd9f86b8	-0.077893674
222	0xb921332b	-0.00015373218
223	0xbd8b8b83	-0.06813719
224	0x3d98b979	0.07457251
225	0xbdf15bad	-0.11785064
226	0x3d68e4c3	0.05685879
227	0xbd875aef	-0.06609141
228	0xbda49d89	-0.0803786
229	0x3ccd8c52	0.025091324
230	0x3dbadc36	0.09124033
231	0x3de041dc	0.10950062
232	0x3de24fe7	0.110503964
233	0xbc7bc66f	-0.0153671345
234	0x3db5a5ba	0.088695005
235	0xbd83d128	-0.06436378
236	0xbdb2fa28	-0.0873912
237	0xbde37d5c	-0.11107895
238	0xbd813df0	-0.06310642
239	0xbdf3245f	-0.118721716
240	0x3d9c1a87	0.07622247
241	0xbd17c9c8	-0.037057668
242	0x3d2e4946	0.042550348
243	0x3d8e43ba	0.069465116
244	0xbd8e1b0e	-0.06938754
245	0x3dac66ff	0.084180824
246	0x3da2c962	0.07948567
247	0x3decd3d6	0.11563842
248	0x3ddf7fe4	0.10913065
249	0x3df24155	0.11828867
250	0xbda388db	-0.079850875
251	0xbd515cdd	-0.051113952
252	0x3c9637de	0.018337186
253	0xbdddde3d	-0.10833404
254	0x3df0fedd	0.11767361
255	0xbdb06557	-0.08613079

net.1.bias f4 [64]
0	0xbdacf9ff	-0.084461205
1	0x3ce78457	0.028261347
2	0x3d9041b3	0.07043781
3	0x3d988076	0.07446377
4	0xbd808a79	-0.062764116
5	0xbd84342c	-0.064552635
6	0x3cfb93bb	0.030710092
7	0xbdafc983	-0.08583357
8	0x3ddea113	0.10870566
9	0xbd36e82d	-0.044655014
10	0xbbd5f073	-0.006528908
11	0xbdc06dcc	-0.09395942
12	0x3d747cf3	0.059689473
13	0x3ddd4a0f	0.10805141
14	0xbdae37f5	-0.08506767
15	0xbdbdf490	-0.09275162
16	0xbd2b934d	-0.041888524
17	0xbde42107	-0.11139112
18	0xbd306729	-0.04306713
19	0x3db55c77	0.08855527
20	0xbdd77ba4	-0.105216295
21	0x3dbf5bcc	0.09343681
22	0x3b08843b	0.0020830769
23	0xbdeab72b	-0.11460718
24	0xbc4204dd	-0.01184198
25	0x3d71d191	0.05903775
26	0xbdd89e59	-0.105770774
27	0xbdd53427	-0.10410338
28	0xbd750dc1	-0.05982757
29	0xbdbefff2	-0.093261614
30	0x3b0c9eab	0.0021456878
31	0xbde8cae5	-0.11366824
32	0xbdc3e917	-0.09565943
33	0x3d9db2f6	0.0770015
34	0xbda9c260	-0.08289027
35	0x3dc88c30	0.09792364
36	0xbd829ca3	-0.06377532
37	0xbd66ca60	-0.056345344
38	0x3dd4ca7c	0.10390183
39	0xbde8ef7e	-0.113738045
40	0xbd9170ed	-0.07101617
41	0xbd720a13	-0.05909164
42	0x3ddec685	0.10877708
43	0x3d1668ec	0.036721155
44	0xbdfe9b5c	-0.12431976
45	0xbc1c6f42	-0.00954801
46	0xbda2bd79	-0.07946295
47	0xbdc5e7e8	-0.09663373
48	0x3ddb149d	0.10697291
49	0x3ba2cf2b	0.004968544
50	0xbc259ce6	-0.010108208
51	0xbdde08f6	-0.10841553
52	0xbd8bfbb5	-0.06835119
53	0x3dd5d63e	0.10441254
54	0x3a88475f	0.0010397247
55	0x3d072371	0.032992784
56	0xbdb4efd0	-0.08834803
57	0xbe01d327	-0.12678204
58	0xbac001b9	-0.0014648951
59	0x3d3cdf5f	0.04611146
60	0xbd99351b	-0.07480832
61	0xbdb2fb60	-0.08739352
62	0xbdfe38d6	-0.12413184
63	0xbdb8e7c9	-0.090285845

net.2.weight f4 [64, 64]
0	0x3bb708e8	0.0055857785
1	0xbddf0da9	-0.10891277
2	0xbdec8173	-0.11548128
3	0xbc886e7b	-0.016654244
4	0x3d166b44	0.03672339
5	0xbc93f55f	-0.018061338
6	0x3d582b6a	0.052775778
7	0xbdf030c8	-0.11728054
8	0x3dfe0f8c	0.12405309
9	0x3d918014	0.07104507
10	0x3d5f89aa	0.054574646
11	0xbd8a328f	-0.067479245
12	0x3dd692e5	0.10477237
13	0x3dbf480f	0.09339916
14	0x3c79271f	0.015207081
15	0xbd196a76	-0.037455045
16	0x3d3620eb	0.044464987
17	0xbd391d44	-0.045193925
18	0xbdbf23ac	-0.09332976
19	0x3d8d858d	0.069102384
20	0x3ca27059	0.019828962
21	0xbb54802f	-0.0032425036
22	0xbddb1d2f	-0.10698926
23	0x3d2cb72b	0.04216687
24	0x3c5089af	0.012728139
25	0xbe02dad3	-0.12778787
26	0xbdb81c69	-0.08989794
27	0x3d49de33	0.04928417
28	0xbd5e9f82	-0.054351337
29	0xbdae318f	-0.08505546
30	0xbdd3865f	-0.103283636
31	0xbdc6f65c	-0.09714958
32	0xbd43be5c	-0.047788963
33	0xbdfcdeb1	-0.123471625
34	0xbc7208be	-0.014772592
35	0x3ce800b8	0.028320655
36	0xbd75dc05	-0.06002428
37	0xbde23132	-0.110445395
38	0xbdc19200	-0.094516754
39	0xbd921fbc	-0.07134959
40	0x3dd657bf	0.10465955
41	0xbdb3dc08	-0.08782202
42	0x3c00279a	0.007821942
43	0xbc5d4e58	-0.013507448
44	0xbd12e1bb	-0.035859805
45	0xbdc03b27	-0.093862824
46	0x3babc9b3	0.0052425503
47	0xbc8657ac	-0.016399227
48	0x3dd5bbfa	0.10436244
49	0xbc848eff	-0.016181467
50	0xbdfc9ee3	-0.12334993
51	0xbcd505bf	-0.026003717
52	0xbb43985a	-0.0029845447
53	0x3cb3b649	0.021937506
54	0xbd88fba2	-0.0668862
55	0xbdf42b42	-0.11922313
56	0xbc38b8e7	-0.011274553
57	0x3dbf740e	0.093483075
58	0xbd056ceb	-0.032574575
59	0xbdf37e83	-0.118893646
60	0xbda0860e	-0.07838069
61	0x3d4de635	0.05026837
62	0x3d4989d4	0.04920371
63	0x3d600acc	0.054697797
64	0x3d841ea5	0.064511575
65	0x3cb12214	0.021622695
66	0x3d1d5ffa	0.03842161
67	0xbdfc8ccd	-0.12331543
68	0x3dabfce4	0.083978444
69	0xbde8eb76	-0.113730356
70	0xbdabb136	-0.0838341
71	0xbda59dc0	-0.08086729
72	0xbd6b485b	-0.05744205
73	0x3dc36656	0.095410034
74	0xbd2f7c81	-0.042843346
75	0x3dc64b66	0.0968235
76	0x3e008c50	0.12553525
77	0xbd99115d	-0.07474015
78	0x3b9a5ed0	0.0047110096
79	0xbd1469e6	-0.036233805
80	0xbd5dbcf9	-0.054135296
81	0x3d5b0cde	0.053479068
82	0xbd918438	-0.07105297
83	0x3d741e74	0.059599355
84	0xbd2bca48	-0.041940957
85	0xbdcce478	-0.100045145
86	0xbd831395	-0.06400219
87	0xbc481ffa	-0.012214655
88	0x3c9c5c77	0.01908706
89	0xbba41950	-0.0050079003
90	0xbdd7421f	-0.105106585
91	0xbdefe1ac	-0.11712965
92	0xbdb2fc1c	-0.08739492
93	0xbd82a2f8	-0.0637874
94	0xbc88499b	-0.01663666
95	0x3d5e9a87	0.054346588
96	0xbd968029	-0.07348663
97	0x3c984745	0.018588671
98	0xbcaa7506	-0.020807754
99	0xbde60bfa	-0.11232753
100	0x39d014fb	0.00039688483
101	0x3d33e86b	0.043922823
102	0xbd23cab5	-0.03998824
103	0xbd4eaa51	-0.050455395
104	0xbc85e2ac	-0.016343437
105	0x3c6d02a4	0.014465962
106	0xbdc39289	-0.09549434
107	0xbc9f3a41	-0.019436957
108	0xbdff1bbb	-0.12456461
109	0xbdd38b6b	-0.10329326
110	0x3d4661cc	0.04843311
111	0x3bbb1955	0.005709807
112	0xbb669952	-0.00351866
113	0xbdf7dc48	-0.12102562
114	0x3dab1456	0.08353488
115	0x3cd558f7	0.026043398
116	0x3d3619ac	0.044458076
117	0xbbfe8b5b	-0.0077680773
118	0xbdcf7675	-0.10130016
119	0x3d914248	0.0709272
120	0xbbdea1eb	-0.0067942045
121	0xbda69afb	-0.08135029
122	0xbb85215c	-0.0040628146
123	0xbd71a305	-0.05899336
124	0xbd80ade5	-0.06283168
125	0xbdd506f1	-0.104017146
126	0xbda6a2e6	-0.08136539
127	0x3dc19459	0.09452123
128	0x3dc10af2	0.09425916
129	0x3dfac165	0.12243918
130	0x3cb274c7	0.0217842
131	0x3daa310b	0.083101355
132	0x3d5d9838	0.054100245
133	0xbddfd2bc	-0.10928866
134	0x3c33bd67	0.01097045
135	0xbd931755	-0.071821846
136	0xbdd382ab	-0.10327657
137	0xbdb6a286	-0.08917718
138	0xbd4b39b3	-0.049615573
139	0xbcbc1322	-0.022958342
140	0xbdcf6809	-0.10127265
141	0xbcbd9fe1	-0.023147525
142	0xbdf81974	-0.1211423
143	0x3d44e879	0.048073266
144	0xbcc0c95e	-0.02353352
145	0xbad3d411	-0.0016161223
146	0xbdda4781	-0.106581695
147	0x3d654cf4	0.05598159
148	0xbdd17c2a	-0.102287605
149	0x3d787d7a	0.06066654
150	0xbd858355	-0.0651919
151	0x3dd2917d	0.10281656
152	0xbdbda72c	-0.09260401
153	0xbb47fb03	-0.0030514605
154	0xbd15f2ec	-0.03660862
155	0xbc2a50e6	-0.010395264
156	0x3cf5a934	0.029987909
157	0x3d1e7c13	0.038692545
158	0xbd15ecc2	-0.036602743
159	0xbc0e3660	-0.008679956
160	0x3d02a963	0.03189982
161	0xbcc4a00b	-0.024002096
162	0xbdddbcb5	-0.10827009
163	0xbda4754c	-0.08030185
164	0xbd022f93	-0.03178365
165	0x3cf9efbf	0.030509828
166	0x3d155715	0.03646
167	0x3bd8f428	0.0066209026
168	0xbde0cdd5	-0.10976759
169	0x3df9111a	0.12161465
170	0xbd78f63b	-0.0607817
171	0xbd9bb9fe	-0.076038346
172	0xbc1d174a	-0.009588072
173	0x3d18513b	0.037186842
174	0xbd1121be	-0.03543257
175	0x3d2efc7c	0.042721257
176	0x3c852d21	0.01625687
177	0xbd34220b	-0.04397778
178	0xbd783db0	-0.060605705
179	0x3b2b03dc	0.002609483
180	0x3df38d24	0.11892155
181	0xbd24075d	-0.040046085
182	0x3d9af7de	0.07566808
183	0xbd5766f4	-0.052588418
184	0xbcc15e42	-0.023604516
185	0x3db060be	0.08612202
186	0x3da7e29e	0.08197521
187	0x3d790687	0.06079724
188	0x3d41cbd7	0.047313537
189	0x3d96fe66	0.073727414
190	0x3d38617f	0.045014855
191	0x3dd41d3e	0.1035714
192	0x3df88868	0.121353924
193	0x3c11976f	0.008886202
194	0xbd922ed4	-0.07137838
195	0xbd9a6b87	-0.075400405
196	0x3d298c62	0.041393645
197	0xbd4422ca	-0.04788474
198	0xbc16a437	-0.009194425
199	0xbd6cc1e1	-0.057802085
200	0xbd3463b1	-0.044040386
201	0xbd613a0b	-0.054986995
202	0x3db8cea3	0.09023788
203	0xbdc2ff2a	-0.09521325
204	0xbde61e5c	-0.11236259
205	0x3cb5afb7	0.022178514
206	0xbdd1bf50	-0.10241568
207	0x3da36941	0.0797906
208	0xbdbcf764	-0.092268735
209	0x3c7f7949	0.0155928815
210	0xbdc7e4f7	-0.097604685
211	0x3dc5923a	0.09647031
212	0x3c1dd485	0.009633188
213	0xbde3c173	-0.11120882
214	0x3d1f0f4e	0.038832955
215	0xbdef800b	-0.11694344
216	0x3dfb1bdf	0.12261175
217	0x3dd21393	0.1025764
218	0xbd166a28	-0.036722332
219	0x3c5f5114	0.01363017
220	0xbde788b4	-0.11305371
221	0x3de184f6	0.110116884
222	0x3dfa14c6	0.122109935
223	0x3df82204	0.12115863
224	0x3de1cd1c	0.1102545
225	0x3d466d95	0.04844435
226	0xbdb834e4	-0.08994463
227	0xbd851f81	-0.065001495
228	0x3ceedcf6	0.029158097
229	0xbdd31256	-0.10306232
230	0xbdadde2f	-0.08489644
231	0xbd0f91f3	-0.035051297
232	0xbc3f118e	-0.0116619
233	0xbde09700	-0.10966301
234	0xbd4cfde9	-0.050046835
235	0xbd49c7fe	-0.049262993
236	0xbd1ac595	-0.037786085
237	0xbd3b2554	-0.045689896
238	0xbd415836	-0.047203265
239	0xbd931ddf	-0.07183432
240	0x3cfeee77	0.031119568
241	0xbd2c7ea2	-0.042112954
242	0x3d3af5fb	0.04564474
243	0x3dd1e6ca	0.10249098
244	0x3ddafbce	0.10692559
245	0xbcd34785	-0.02579094
246	0xbceccbd3	-0.028905785
247	0xbda738e2	-0.081651464
248	0xbacddb2f	-0.0015705581
249	0xbdfb2f00	-0.12264824
250	0xbd1d1fc8	-0.038360387
251	0xbd85c9d8	-0.06532639
252	0xbdc285bb	-0.09498163
253	0xbd1a8e7a	-0.037733532
254	0xbc9ca7ca	-0.019122977
255	0xbcf8d024	-0.030372687

net.2.bias f4 [64]
0	0xbdbdd3f2	-0.09268941
1	0xbd6998c5	-0.057030458
2	0x3cd0f40e	0.025507
3	0xbdf9954b	-0.121866785
4	0x3d1cfa78	0.038324803
5	0xbd9423e7	-0.0723341
6	0xbd96c48c	-0.07361707
7	0x3df47e16	0.119381115
8	0x3da5faa4	0.081044465
9	0x3d9ef4a5	0.07761506
10	0x3db051f1	0.08609379
11	0xbd5d2f2f	-0.054000076
12	0x3d942946	0.07234435
13	0x3db39b09	0.08769805
14	0x3d488d47	0.048962858
15	0xbcdee685	-0.02720953
16	0x3cc926b8	0.024554595
17	0xbdc3bc23	-0.095573686
18	0xbc90dd17	-0.017683549
19	0x3d6cbd86	0.05779793
20	0xbde3538c	-0.1109992
21	0x3cf2a3fb	0.029619208
22	0x3d0e8b3d	0.034800757
23	0x3db062a2	0.08612563
24	0xbdd98d17	-0.10622614
25	0x3ddda7c3	0.10823014
26	0xbd83114e	-0.06399785
27	0x3cbb7308	0.022882
28	0x3de29340	0.11063242
29	0xbc59a52f	-0.013284012
30	0xbdeb5cc8	-0.11492306
31	0xbd49b439	-0.04924414
32	0x3d452d27	0.048138764
33	0x3d6bfda8	0.057614952
34	0x3dd0ea2a	0.10200913
35	0x3ba94b3f	0.0051664407
36	0x3d369900	0.044579506
37	0x3cec5494	0.028848924
38	0xbccf7958	-0.025326416
39	0x3d6a2293	0.05716188
40	0xbc33b1bd	-0.010967669
41	0x3d7bf94e	0.061517052
42	0xbd464294	-0.048403338
43	0xbc85144b	-0.016245028
44	0xbd716470	-0.058933675
45	0xbde129e0	-0.10994315
46	0xbcd6b692	-0.026210103
47	0xbd134d8d	-0.03596263
48	0x3dcd9e1e	0.10039924
49	0x3d701812	0.058616705
50	0x3d2669dc	0.0406283
51	0x3dce02d1	0.10059131
52	0xbd6822fa	-0.05667398
53	0xbcdead1b	-0.027182152
54	0x3d5af0fb	0.053452473
55	0xbdcf4365	-0.10120276
56	0x3d38543a	0.0450022
57	0xbde67ea7	-0.11254626
58	0x3da28613	0.07935729
59	0xbd674bb1	-0.05646867
60	0xbdb0230e	-0.08600436
61	0x3d623629	0.055227432
62	0xbdbd8d94	-0.092555195
63	0x3d8ad34c	0.06778583

net.3.weight f4 [3, 64]
0	0x3d2e2ba3	0.042522084
1	0xbdce210d	-0.10064898
2	0x3ded5b0f	0.11589634
3	0xbd2cb5f1	-0.0421657
4	0x3cd4ed02	0.02599192
5	0xbdb6b3bf	-0.089210026
6	0x3da95c70	0.08269584
7	0xbca336aa	-0.019923527
8	0xbdc7359b	-0.09727021
9	0x3c01ae7e	0.007915137
10	0xbd81ba96	-0.063344166
11	0xbdb3f0d6	-0.0878617
12	0xbd2a144e	-0.04152327
13	0xbd6ce0fd	-0.057831753
14	0x3dd956f5	0.10612289
15	0x3cc4bf16	0.024016898
16	0x3d1ef4c9	0.038807664
17	0x3d292799	0.04129753
18	0xbda8275e	-0.08210634
19	0xbd1c7b12	-0.038203306
20	0xbdb46dba	-0.08809991
21	0xbbd3b741	-0.0064610546
22	0xbdcc69b4	-0.09981099
23	0xbdd7931a	-0.10526104
24	0x3dd2da24	0.10295513
25	0x3dc72cad	0.09725318
26	0xbd5a7df3	-0.05334277
27	0x3ce067d3	0.027393257
28	0x3b9e9309	0.0048393053
29	0x3c482267	0.012215233
30	0xbda21047	-0.07913261
31	0xbd9ea484	-0.077462226
32	0xbdd45c34	-0.10369149
33	0x3d9043a3	0.07044151
34	0x3ce0ee11	0.027457269
35	0xbccb8a06	-0.024846088
36	0xbc42c676	-0.011888137
37	0x3d596614	0.053075865
38	0xbd08295f	-0.03324258
39	0x3cfffc05	0.031248102
40	0xbb5fb0e0	-0.0034132525
41	0x3d81662e	0.06318317
42	0xbda25d00	-0.079278946
43	0xbde2e40f	-0.11078655
44	0x3ded9718	0.116010845
45	0xbdeed969	-0.116625614
46	0x3d1fa8a6	0.038979195
47	0x3db3fc4c	0.08788356
48	0xbdd652a3	-0.104649805
49	0x3d936d90	0.07198632
50	0x3de3cb96	0.11122815
51	0x3dd0efec	0.102020115
52	0x3d843ffb	0.06457516
53	0x3c93325e	0.017968353
54	0xbdc42dc4	-0.095790416
55	0xbd98a976	-0.07454197
56	0x3d95e31f	0.073187105
57	0xbdd8527a	-0.10562606
58	0x3d0ee609	0.034887347
59	0x3dc4857c	0.095957726
60	0x3d699f85	0.057036895
61	0xbdaf23e3	-0.08551767
62	0xbd7d3d26	-0.061825894
63	0x3d8aa8d6	0.06770484
64	0x3db0fb2c	0.08641657
65	0x3d8b6216	0.06805818
66	0x3dd332de	0.103124365
67	0x3d8bea80	0.06831837
68	0xb7de9d22	-2.6537633e-05
69	0xbd3e3823	-0.046440255
70	0x3d0fac3b	0.03507636
71	0xbbb0f700	-0.0054005384
72	0x3c38283c	0.011240061
73	0xbd4ae412	-0.04953391
74	0x3da40669	0.08009035
75	0x3dcb4116	0.099245235
76	0xbb2d5e53	-0.0026453927
77	0xbc1f5955	-0.009725888
78	0xbc8e3718	-0.017360255
79	0x3d9655c4	0.07340577
80	0xbd592c74	-0.05302091
81	0xbda21e47	-0.07915931
82	0xbc440671	-0.011964426
83	0x3d0ba3fd	0.03409194
84	0x3dbda443	0.09259846
85	0xbd4e9a23	-0.050439965
86	0x3da7a5e0	0.08185935
87	0x3da9b141	0.082857616
88	0xbcfa8d65	-0.030585
89	0xbd9f9d4a	-0.077936724
90	0xbdcb034c	-0.09912738
91	0x3d82e1eb	0.06390747
92	0xbc623b95	-0.013808151
93	0x3d656814	0.05600746
94	0xbd65a9a5	-0.05606999
95	0x3d8ed5b4	0.069743544
96	0xbd777db3	-0.06042261
97	0xbc4e53e6	-0.012593245
98	0x3d9af924	0.07567051
99	0xbd3d28cf	-0.046181496
100	0x3dbb4ec9	0.091458865
101	0x3da7d60c	0.08195123
102	0x3d24ce86	0.04023602
103	0xbcc8197e	-0.024426218
104	0x3c13654b	0.008996318
105	0x3d8decce	0.069299325
106	0x3d9b4711	0.07581914
107	0x3d997bd1	0.07494319
108	0xbd93c644	-0.072155505
109	0x3c740739	0.0148943
110	0x3dc050c3	0.09390404
111	0x3d9bd724	0.07609394
112	0xba6d0249	-0.0009041173
113	0xbde00148	-0.109377444
114	0xbd85ac25	-0.065269746
115	0xbdc384d8	-0.09546822
116	0x3d883729	0.06651146
117	0x3dd13199	0.10214538
118	0x3cf0d2e2	0.029397432
119	0xbc42da3a	-0.01189285
120	0xbdf8f590	-0.12156212
121	0x3d4a7e49	0.04943684
122	0x3d9fdefa	0.07806201
123	0xbccce5f0	-0.025011986
124	0x3db7e2ed	0.089788295
125	0xbde28fa2	-0.11062552
126	0x3c5e90c9	0.013584324
127	0x3cbb0d1d	0.022833401
128	0xbdb6b93d	-0.0892205
129	0x3d700eaf	0.058607753
130	0x3cfdb458	0.030969784
131	0x3dbf155a	0.09330244
132	0xbc8325d6	-0.016009253
133	0xbd7ca136	-0.06167718
134	0xbd99a757	-0.07502621
135	0xbd870528	-0.0659278
136	0x3b158cc2	0.0022819494
137	0x3deab14b	0.11459597
138	0x3d56a610	0.052404463
139	0x3d7508a4	0.059822693
140	0xbd141964	-0.036157027
141	0x3da67af4	0.0812892
142	0xbc643cee	-0.013930542
143	0xbcfe237d	-0.031022782
144	0x3d65a5a4	0.05606617
145	0xbc05b248	-0.008160181
146	0xbd9a3378	-0.07529348
147	0x3d3cfaef	0.046137746
148	0x3cbc9a57	0.023022814
149	0xbd5eff84	-0.054442897
150	0xbdb146dd	-0.08656094
151	0xbde3e7e0	-0.11128211
152	0xbde30ed8	-0.110868156
153	0xbdbc6674	-0.09199229
154	0xbd690dbc	-0.056897864
155	0x3d9cf2b9	0.07663483
156	0xbcadaf9a	-0.021201897
157	0xbb964f52	-0.0045870924
158	0x3d4d668d	0.05014663
159	0xbb5b5e6f	-0.0033473035
160	0x3cff7990	0.031185895
161	0xbda48b68	-0.08034402
162	0xbdc91d38	-0.09820026
163	0xbadf78db	-0.0017049568
164	0x3b38d3bd	0.0028202378
165	0x3dd181dc	0.10229847
166	0xbd41a395	-0.047275145
167	0xbddaa3d4	-0.10675779
168	0x3d9ee54e	0.0775858
169	0x3de2ddea	0.11077483
170	0x3d97caad	0.07411704
171	0x3cdd9031	0.027046295
172	0xbdf7fe99	-0.121091075
173	0x3baffdd8	0.0053708367
174	0xbd45e47e	-0.04831361
175	0xbd344e46	-0.04401996
176	0x3c8a6a3e	0.016896363
177	0x3caa0b35	0.020757297
178	0x3dc4d8fc	0.09611699
179	0x3d24b9a4	0.040216103
180	0x3c1e9b5f	0.009680598
181	0x3dee42d6	0.11633842
182	0x3b497444	0.0030739466
183	0xbdd17c30	-0.10228765
184	0xbcce595c	-0.025189094
185	0xbc96d57c	-0.018412344
186	0xbddc962c	-0.107708305
187	0xbd4f79d1	-0.050653283
188	0xbdbe3389	-0.09287173
189	0x3d124cba	0.035717703
190	0xbdbbd1aa	-0.091708496
191	0x3ce9de9a	0.028548528

net.3.bias f4 [3]
0	0xbd1d2864	-0.038368598
1	0xbd1a03f7	-0.037601437
2	0xbd4a29f3	-0.049356412
